…
- Validates on 10% of validation batches

### Making Predictions
```python
model_1_pred_probs = model_1.predict(valid_dataset)
model_1_preds = tf.argmax(model_1_pred_probs, axis=1)
```
- `predict()` returns probability scores for each class
- `tf.argmax()` converts probabilities to class indices (0-4)
- Classes are converted back to labels (OBJECTIVE, METHODS, etc.)

---

## Model Architecture Summary

```
Layer (type)                    Output Shape              Param #
================================================================
input_1 (InputLayer)            [(None, 1)]               0
text_vectorization (TextVecto   (None, 55)                0
token_embedding (Embedding)     (None, 55, 128)           8,704,000
conv1d (Conv1D)                 (None, 55, 64)            41,024
global_average_pooling1d        (None, 64)                0
dense (Dense)                   (None, 5)                 325
================================================================
Total params: 8,745,349
Trainable params: 8,745,349
```

**Key Observation:** The embedding layer contains the vast majority of parameters (8.7M out of 8.7M total). This is because it learns a 128-dimensional representation for each of the 68,000 unique words in the vocabulary.

---

## Performance Metrics

After training and evaluation on the validation dataset:
…
